MNIST手写数字识别/MNIST手写数字识别/CNN_MODEL_PARAM.pt (torch, 676064 bytes, 8 tensors)

seq.0.weight f4 [10, 1, 3, 3]
00000000: 23ab 92ba 6d73 27bf 9690 acbe 5320 e2be
00000010: 3a23 003e a4b6 9b3e 482b d2be f2d0 89be
00000020: d6e6 a9bd 1b12 313e 0f22 ad3e e9f4 07be
00000030: e035 babe 124c a7be 36e4 b63e c723 e73c
00000040: ba73 eabd 818a 69be 9aab 83bd c984 b93d
00000050: 1a2a 083d 224a 10be b58d 9b3e eb44 90be
00000060: 5246 c73d 8389 283e 42d5 46be 74f8 443d
00000070: 543a 94be bbfc 89be c176 8b3e 0707 a2be
00000080: f3eb 20bf 7675 7abe 0d1d 7fbe 7ef0 6bbe
00000090: 28bc 77be 3065 b9be e2c5 bcbe a7ca 813e
000000a0: 64a1 32be 39bc debd b4e7 b3bd c906 c63e
000000b0: 8719 813e 1e0e a43e 52b1 19be 8b3a e8be
000000c0: abdf 54bd 16d4 2abf 0667 a83c 5bbe 01bf
000000d0: 99ec 89bc 5fb1 b33e 6b82 88bd 1c6d b7bd
000000e0: 5105 ccba c5a5 823e 35bb 3f3e 4fa8 273c
000000f0: 9663 42be 5a41 82bc 9b27 a8be e922 9dbe
00000100: 4710 273e 12c4 d83d 9daf aebe 33e8 35ba
00000110: 347c 163e 8407 c6be fcf9 623e 6e09 073e
00000120: 7582 48be c18c dd3d d480 ab3d e739 1b3d
00000130: 9259 293e 0485 213e 5abf d93d d2a4 793e
00000140: fe2d 0dbe 4980 01bf 80f4 a9bd 2a90 a2bd
00000150: 5fe9 8ebe c112 39be f051 6c3e 960d d8be
00000160: a3ec 82be 7846 823e
-0.0011189919 -0.654105 -0.3370406 -0.44165286 0.12513438 0.3041278 -0.41048646 -0.26917225
-0.082959816 0.17292063 0.33815047 -0.1327702 -0.36369228 -0.32675225 0.35720986 0.028215302
-0.11447854 -0.22806741 -0.06429215 0.0905853 0.033243276 -0.1409078 0.3038155 -0.2817758
0.097302094 0.16458707 -0.19417289 0.048088506 -0.2895075 -0.2695063 0.2723904 -0.31645986
-0.6286003 -0.2445887 -0.24913426 -0.23040959 -0.2419287 -0.36210012 -0.36869723 0.25349924
-0.17444378 -0.108757444 -0.08784428 0.38677052 0.25214788 0.3204202 -0.15009049 -0.45357165
-0.05197112 -0.6672987 0.020556938 -0.50681084 -0.016836451 0.3509626 -0.066655 -0.08956358
-0.0015565549 0.25517097 0.18723758 0.010232999 -0.18983302 -0.015900303 -0.32842717 -0.30690697
0.16314803 0.105842724 -0.34118357 -0.00069392024 0.14695817 -0.3867761 0.22165674 0.13187191
-0.19581015 0.10817862 0.083741814 0.037897017 0.16538075 0.15773398 0.106322005 0.2437928
-0.13787076 -0.5058637 -0.08298588 -0.07937653 -0.27912423 -0.1807356 0.23078132 -0.42197865
-0.25571164 0.25444388

seq.0.bias f4 [10]
00000000: 133d 8d3d e9d7 093c 91df 29be 865b 53bd
00000010: 2fe7 a4bd 9fd2 a63c b934 bfbc e8d5 6bbe
00000020: 42f3 c1be 1827 31bc
0.068964146 0.008413293 -0.1658919 -0.051600955 -0.08051907 0.020364104 -0.02334057 -0.23030818
-0.37880903 -0.010812543

seq.3.weight f4 [20, 10, 5, 5]
00000000: cb26 013e 2f28 163e 2aee 4a3e aa5c 8b3e
00000010: 1301 dc3d 1b6c 103e 81da 403d 8133 9b3d
00000020: b03d 223e 653c 4abd 3800 a3bc d090 853d
00000030: 18b5 f2bd 8780 f2bd 7f56 90bd 7dc9 d3ba
00000040: 2f4d fdba e4cc 12be e7dc 20be 3ed7 18bd
00000050: 1ba2 c1bd b4b4 fabd 6ac9 23be 2a9f 3dbe
00000060: 4050 44bd a6e6 99bc 0057 843a 9f8a 393e
00000070: 16c9 e13d ee70 0f3e f939 45bd 9ecd 303d
00000080: b5de 2e3d 9140 603d 5352 da3d fadf c7bd
00000090: 917b 363d 50cc d13c c806 f3bc 7b64 1b3b
000000a0: 922d adbd 5652 0fbe e360 70bd 54c2 253c
000000b0: eb8e d83d 7e24 e83d 6d9d 733d b5ef b9bc
000000c0: 86da f53d 9e2e 813d 39ca 52be 6704 aabd
000000d0: 5979 d2bb 6fc1 a53a b544 243c 8f4f f3bd
000000e0: 626e 593d d287 95bb f064 4abd 98e9 cfbd
000000f0: 3196 da3d 1e95 bd3d 460a 143e ccbe 273d
00000100: a729 df3d 1184 713e 5b11 8b3e ac2d 883e
00000110: ad42 213e 60c8 833e fb77 253e ac93 573e
00000120: 64e2 eb3d 9106 db3d dd46 663e f9b1 7d3e
00000130: a2a7 263d 2d04 143c 66cb 0bbe d359 7abe
00000140: 763f e03d 0cc1 473d 6634 74bb 05fb 96bd
00000150: 3ccf 81be 9f9a c13b 28a9 093e 0938 343d
00000160: 269f 16bd f386 663d f83e 8b3d 45b6 743d
00000170: cada a539 b577 92bd b5fb 2f3d b880 513d
00000180: cfaa fdbd 1932 a23c e9a4 0b3e 7b61 a83d
00000190: cec0 0dbd f243 fdbd 3c50 adbd 2dd6 cf3d
000001a0: 495e b03c 8980 ec3d 1bc0 e33d 2ef3 cb3d
000001b0: bc4b 723e 28cd b33d 0683 033e 6533 fd3d
000001c0: 2dae b13d dbab b93c d3c8 a63d 75d6 25bd
000001d0: e04d 52bc 48e0 e2bd 2ce8 38bd fa31 7a3b
000001e0: 87ca 6fbd 7004 283d e44a 243d 7ba6 4a3d
000001f0: 936a 91bd c3ee 863e 8dda 0ebe 8207 a8be
00000200: 477f 56be 47dd 92bd c6c8 7d3e b2e0 763d
00000210: 73f8 31be de9d 91be f310 77be 9bbf 1b3e
00000220: d607 e13d a1d7 8ebe 0f9a 9dbe 85f2 15be
00000230: 4a50 d23d 7f6f 5a3e 6586 ecbd 0f05 16be
00000240: b6eb 0c3c 7141 033e e8f3 583e 292f 913c
00000250: 7ec0 923c 3dd0 093d a0d7 b7bd b0f4 7ebc
00000260: 5915 a8bd ac96 32be 72c2 973d 2c96 1bbe
00000270: a595 0abe 797b 30be 9641 1bbe a12d 95bd
00000280: d091 f3bd d4f7 86bd 2afb 59bd 33b8 06be
00000290: 351c e03c 1d10 243d 861e 9cbd d042 30be
000002a0: 5da7 49be 0074 493d 98fa b53d e7b7 753d
000002b0: c535 313e 8426 dd3d b307 3e3e ef30 8b3c
000002c0: e4be 613d baa2 e1bd eaac 293e 6d6a c4bc
000002d0: 9510 8bbd 80e9 d83b 7b11 0ebc 60ce 763d
000002e0: e7d1 15bd 17ba acbd 2091 b83d 902f 88bd
000002f0: 2382 09bc b3c7 8f3d 4e89 17bd 910e dd3d
00000300: ffe9 af3d fef5 133e f8e9 ea3d 6f33 0abe
00000310: 55f9 f33d a240 e63c ba10 bc3d da54 ccbd
00000320: 468e 2cbe 731c ebbd c329 91be e2c4 71be
00000330: 74e9 e2bd 39f9 05be efcb 65be c05c 35be
00000340: b3fd 15be 5fc2 abbd a26f 8abc f40f 063e
00000350: b093 ea3c 328b b2bd a3c3 72bd 98d7 403e
00000360: d348 433e f884 6bbd d506 de3b 8fa6 c93d
00000370: 9645 453d 7dd5 783d 7417 1c3e fe29 793d
00000380: 3d98 0bbd a5fd 273d 0c26 d9bb 832d 723d
00000390: 509e 4f3d bef9 8b3d efb8 223d 2ca7 1f3d
000003a0: fd9e d23b 2976 a0bd 09e5 1abe c72e 0f3d
000003b0: fa49 253b b1d3 e6bc e2d2 b5bc c9d3 893d
000003c0: 5fc5 003e 7f2b 3a3e 28ce 133d 5ed8 2f3e
000003d0: ca47 1b3e a4bb 6bbc 80f7 30bc 31f9 69bd
000003e0: 5b52 173c 835f 8bbc e9d4 f53d cd84 f13a
000003f0: 1e9b aabd 4c67 12be 0068 10be e318 e73d
0.12612455 0.14663766 0.19817415 0.27219135 0.107423924 0.14103739 0.04708338 0.07578183
0.15843844 -0.049374003 -0.019897565 0.065217614 -0.11850947 -0.11840921 -0.07047748 -0.0016158071
-0.0019325371 -0.14335972 -0.15709268 -0.037314646 -0.09454747 -0.12241498 -0.15994802 -0.18517748
-0.047928095 -0.01878674 0.0010096729 0.18119286 0.11024682 0.14007923 -0.04815099 0.04316484
0.04269286 0.054749075 0.10660233 -0.09759517 0.044551436 0.02561012 -0.02966632 0.0023711014
-0.084559575 -0.13996252 -0.05868615 0.010117132 0.105741344 0.11335085 0.059476305 -0.022697309
0.12004571 0.0630772 -0.20584954 -0.08301621 -0.006423157 0.0012646149 0.010026147 -0.11880409
0.053083785 -0.00456331 -0.049412668 -0.10151976 0.10673178 0.092569575 0.14457044 0.040953442
0.108966164 0.23585536 0.2716168 0.26597345 0.15748091 0.25738811 0.1615905 0.21052426
0.1151779 0.10694612 0.2248797 0.24774922 0.04068721 0.009034199 -0.13651809 -0.24448328
0.10949604 0.04876809 -0.0037262677 -0.07372097 -0.2535342 0.005908325 0.13443434 0.04399875
-0.03677287 0.05628104 0.0679912 0.05974414 0.00031634263 -0.071517386 0.042964656 0.051148146
-0.12386095 0.019799279 0.13637127 0.08221718 -0.0346077 -0.12366475 -0.08462569 0.10148273
0.021529334 0.11547954 0.111206256 0.09958492 0.23661703 0.08779365 0.1284295 0.12363318
0.086757995 0.022664955 0.08143773 -0.040487725 -0.01283595 -0.110779345 -0.04514329 0.003817676
-0.058542755 0.041019857 0.040110484 0.049475174 -0.071004055 0.26354036 -0.13950558 -0.32818228
-0.2094699 -0.071711116 0.2478362 0.06027288 -0.17379932 -0.28440756 -0.2412756 0.1520981
0.10987823 -0.27898887 -0.307816 -0.14643295 0.1026922 0.21331595 -0.11549071 -0.14650367
0.00860112 0.12817933 0.21186793 0.017722683 0.017914053 0.033645857 -0.08976674 -0.015561268
-0.08207197 -0.1744029 0.074101344 -0.15194005 -0.13533647 -0.17234601 -0.15161738 -0.07284094
-0.11893046 -0.06590238 -0.053218044 -0.13156204 0.0273572 0.04005443 -0.076230094 -0.17212987
-0.1969275 0.04918289 0.088856876 0.059989836 0.17305668 0.10798362 0.18557625 0.016991107
0.055113688 -0.11017366 0.16569868 -0.023976529 -0.06790272 0.0066196322 -0.00867116 0.06025541
-0.03657713 -0.08433931 0.090120554 -0.06649697 -0.008392843 0.070205115 -0.03699618 0.10793794
0.08589553 0.14449307 0.11470407 -0.13496183 0.11912791 0.028106991 0.09182878 -0.09977122
-0.16851148 -0.11480036 -0.28352174 -0.23610261 -0.11079684 -0.13083352 -0.22441076 -0.17711163
-0.1464756 -0.08386683 -0.016898934 0.13092023 0.028634876 -0.08717956 -0.059268605 0.18832242
0.19070749 -0.057499856 0.006775717 0.09846222 0.048162065 0.060750473 0.15243322 0.060831062
-0.034080733 0.04101338 -0.00662685 0.059125435 0.050688088 0.06834744 0.039727148 0.038977787
0.0064276443 -0.07835037 -0.15126432 0.03495672 0.0025221095 -0.028177114 -0.022195283 0.06729848
0.12575291 0.18180655 0.036085278 0.17172381 0.15164104 -0.014387999 -0.010801196 -0.057122413
0.009235944 -0.017013317 0.120035 0.0018426419 -0.083303675 -0.14297217 -0.14102173 0.11284044

seq.3.bias f4 [20]
00000000: 7c67 63bc b6b3 b33d ee8d cd3c f723 e6bd
00000010: ce77 213d 6903 a13c a67b 87bc 3231 583d
00000020: bbc8 c7bd b0c2 8b3d a9d6 b2bd 33d7 22bd
00000030: e5ae c2bd 8caf a63c b2e5 5cbb ceb0 aabd
00000040: 6e47 16bd 6a04 103d c846 f2bd 180c 1b3d
-0.013879653 0.087745115 0.025092091 -0.112373285 0.039420895 0.019654946 -0.016538452 0.05278129
-0.09755083 0.06824243 -0.087323494 -0.03975601 -0.09506015 0.02034738 -0.0033706245 -0.08334504
-0.036689214 0.03516046 -0.11829907 0.03785333

seq.5.weight f4 [100, 1620]
00000000: b55b 08bd 477c 04be dba6 e2bd 3726 53be
00000010: 09ae 10be 1480 64be 35d6 35be e7d9 a0bd
00000020: f6f4 c1bd be8d 203e 2581 ae3d 53d6 bf3d
00000030: bf12 663c 5455 a8bd 04dd 1dbe a70c 7ebd
00000040: 63f4 2f3d 7eba 063c af18 593e 363d ad3d
00000050: 1e5b 1d3e 2b3e 193e 61d0 1c3e 0855 233d
00000060: c591 c53d 337d 833e 4306 673e de57 d33c
00000070: 5763 45bd fdee 373c 4e1a b03d df4b 993d
00000080: dadc edbd 30b5 1f3d b8fd 5f3e a6d1 c53d
00000090: 4e89 c5bc 54b2 4bbe 0e1a 86bd 52fd 083e
000000a0: f672 6fbd c2ba 27be 1e72 76bd 35a1 dfbd
000000b0: 13d2 b83c a046 37bd 540f 4dbe e99a 44bd
000000c0: e4a5 373e 6630 ba3d 4d29 e5bb e9cd d43d
000000d0: d127 3b3d bd03 073d bbc3 8fbc e8f5 66bc
000000e0: 4a17 9a3c a407 8e3e f2dd a23d 75db 8e3d
000000f0: 7ff9 903d b353 96bd d0de 44bc 1549 173d
00000100: 9f22 4dbd 232c 433d 54c9 283e 1d34 253b
00000110: 079b 503d e04a e3bd e85c 1ebe cac3 11be
00000120: fa9a 94bb b5d3 f2bc 4ee8 533e 7dbf 643e
00000130: 0f9a 363e 737e f83d c14a da3c becc 983d
00000140: 6f18 e4bb 53d1 7f3d f708 283e 247c 673e
00000150: 4e21 0b3e 29e0 a13c de32 713e bfad 4b3e
00000160: 5ad0 b23d 64ca 9bbc 22ac 4abe 3571 98bd
00000170: 9a2b 0e3d 4a0e 93bd 010a 18be 060f 5b3d
00000180: 92da b03c d4bd 1cbe 57a0 37be 276f 9abe
00000190: 5eca 26be c1e8 9b3d 681b 39bd d3bb e23d
000001a0: a657 103e 5897 723d b769 a23d 36c5 3abd
000001b0: ce18 20be 227d 7fbd c9a9 783c 8acf 403c
000001c0: b155 cb3d 6d86 8b3d 3262 81bc f7c7 ce3c
000001d0: 242d 10bd 401c a1bd db6d e9bc 1e06 2bbd
000001e0: cc49 05bd 9aa2 debd 532d 10be e42a c2bd
000001f0: b942 15be 78b1 7bbe 4777 93bd 25bf 9dbd
00000200: 6966 86bd f8ef bebd 9c54 99bd 4010 9f3d
00000210: dd33 923d 2fcf dabd 1af3 61be 017a 45bc
00000220: 83a1 663d f72a d9bc 5a5b c0bd 7423 e43d
00000230: 6074 543e 17f9 343e e9ca 883d 7a4b 2cbb
00000240: df77 53bd c4e8 ddbc 01c3 3bbd c151 26bd
00000250: a9e4 8e3d 09be f23d 43b5 aa3d 79d5 8f3d
00000260: 5701 713c 7572 07be 3dbe ebbd 6195 2ebe
00000270: 48c3 37be 0c65 87bd 6a98 c1bd a179 a8bd
00000280: 712d 5cbd fab1 28be 9061 923c 90cb 16bd
00000290: 4b5d 07be 3f56 33be bdbf 44be 1451 5ebe
000002a0: 4c42 f7bd 0fe9 d0bd c408 88bc f465 c53d
000002b0: 8428 693c bfcb e7bd d316 14be 9f83 37be
000002c0: 9d75 6dbe 0c6d 8dbd c0fc 5dbd b95d 983d
000002d0: 61e4 8f3e 5cb9 4b3e d948 7f3e 4e46 db3d
000002e0: eede a33d e267 9f3b bbe5 983d f850 ad3d
000002f0: b126 e83d c9a1 613e 3c58 5e3e ee25 563e
00000300: 5708 ae3d b669 953d a26c fdbc b313 93bc
00000310: 01d7 6f3b 597c 14bb a56b 3c3e 3ed5 b23d
00000320: d86e e5bc e734 d3bd c7b1 18be e2cf 00be
00000330: 7c15 203a e791 553d d00d 983d d82a 1f3d
00000340: c602 8b3c 653e e0bc dbe4 4dbd 3881 8abd
00000350: b419 19bc f310 943d 359d 323e 3ce6 723e
00000360: a800 763d f63a af39 3147 e73d 7d14 d73d
00000370: 4d9f f23a 0507 b03d 0605 213e cf1c 563e
00000380: b010 a13e c076 5abd 9f2e a2bd b243 853d
00000390: 8213 6ebd 84e9 21be ce79 cabd dc9a 09be
000003a0: a7e6 6dbd 9f7b 923d f8ed fe3b ec16 943d
000003b0: 57a4 183c 09cf 94be 201f a4be c987 74be
000003c0: fbe8 8fbe cef5 61be 3268 7bbd db26 2d3e
000003d0: 592d 893d 483f c23c 1865 3b3d 9b4f fcbb
000003e0: c3bd 3a3e c944 3b3e 7962 f53d 132c 8f3d
000003f0: 2a55 7bbe f063 4dbe b1e7 5dbe 7e32 9bbe
-0.033290584 -0.12938033 -0.110669814 -0.20620047 -0.14128889 -0.22314483 -0.17757495 -0.078540616
-0.09470551 0.1567907 0.08520726 0.09367051 0.014042555 -0.082194 -0.15416342 -0.062023785
0.042957675 0.008223174 0.21200822 0.08458941 0.1536679 0.14965121 0.15313865 0.039876014
0.09646944 0.25681457 0.22560982 0.025798734 -0.04819044 0.011226413 0.08598767 0.074851744
-0.1161439 0.038991153 0.2187413 0.09659128 -0.024113324 -0.19892246 -0.06547938 0.13377884
-0.058459245 -0.16379836 -0.060167424 -0.1091942 0.022561109 -0.044745088 -0.20025378 -0.047999296
0.17934376 0.090912625 -0.006993449 0.10390837 0.04569227 0.03296255 -0.017549386 -0.014096715
0.018809933 0.27740204 0.07952489 0.06975452 0.070788376 -0.07340183 -0.012016013 0.03693493
-0.050081845 0.047649514 0.1648305 0.0025208064 0.050929096 -0.11098266 -0.15465128 -0.14234844
-0.004535076 -0.029641965 0.20694086 0.22338672 0.17832206 0.12133493 0.026646974 0.074609265
-0.0069609205 0.062455487 0.1640967 0.2260595 0.13586923 0.019760208 0.2355456 0.19890498
0.08731146 -0.019017406 -0.19792226 -0.074434675 0.03470955 -0.0718046 -0.14847566 0.053481124
0.021588597 -0.15306789 -0.17932259 -0.30162928 -0.16288134 0.07612754 -0.045192152 0.11070981
0.14095935 0.059226364 0.0793032 -0.04559823 -0.15634462 -0.062375195 0.015177199 0.011768231
0.09928454 0.06812749 -0.015793893 0.025241835 -0.0351993 -0.078667164 -0.028494766 -0.04175388
-0.03254108 -0.108708575 -0.1407979 -0.09480837 -0.14576234 -0.24579418 -0.07200485 -0.077024736
-0.06562502 -0.09323114 -0.07486841 0.07766771 0.071387984 -0.106840484 -0.22065392 -0.012053014
0.056306373 -0.026509745 -0.09392424 0.11139575 0.20747519 0.17673145 0.06679327 -0.0026290105
-0.05162799 -0.02708853 -0.045840267 -0.04060531 0.06977207 0.118526526 0.08335354 0.070231386
0.014709792 -0.13227256 -0.115108944 -0.17049171 -0.17945588 -0.0661107 -0.09452899 -0.08226324
-0.053754274 -0.16474143 0.017868787 -0.036815226 -0.13219182 -0.17513369 -0.19213767 -0.21710616
-0.12073192 -0.102007024 -0.016605742 0.09638587 0.014230851 -0.11318158 -0.14461832 -0.17921303
-0.23189397 -0.06905565 -0.05419612 0.07439751 0.28103927 0.19894928 0.24930133 0.10706769
0.08001505 0.0048646787 0.074656926 0.08462709 0.11335505 0.22034372 0.21713346 0.20912907
0.084976844 0.072955534 -0.03093559 -0.01795373 0.0036596658 -0.0022657125 0.18400438 0.08732079
-0.028006956 -0.10312825 -0.14911567 -0.12579301 0.0006106717 0.052141096 0.074245095 0.03885922
0.016969096 -0.027373502 -0.05026708 -0.06762928 -0.009344507 0.07229795 0.17442782 0.2372064
0.06005922 0.0003342253 0.112928756 0.10501955 0.001851061 0.08595089 0.15724573 0.20909427
0.31458044 -0.053335905 -0.079190485 0.065070525 -0.058124073 -0.15811735 -0.09886514 -0.1343798
-0.058081295 0.07152485 0.007779833 0.072309345 0.009316525 -0.29064205 -0.32054996 -0.23879923
-0.28107437 -0.22066423 -0.061378665 0.16909353 0.066981025 0.023711815 0.045750707 -0.0076999194
0.18236451 0.18287958 0.11981673 0.06990828 -0.24544206 -0.20057654 -0.21670415 -0.3031196

seq.5.bias f4 [100]
00000000: 207b 9fbd 1c3f c2bd 1048 05be 89a4 c4bc
00000010: 0a7a 1fbe bfac 30be 787b 31be f1f2 c6bb
00000020: 5ed9 12be 6c24 c1bc b5c8 6cbd cbc2 a5bd
00000030: 4540 c2bd f305 06be a0e9 1abe 1d8c 14bd
00000040: 1325 c3bd 85f2 29bd 055b 0ebe c8a8 333d
00000050: 33dc 9abd 04ae 39be 39e3 12be d42b b6bd
00000060: d388 36bd f09b b4bd 500c 1dbc d4a5 14be
00000070: a667 d53c f29d 39be eb2f 163c 087e 96bd
00000080: 6371 17bd 89aa 23be fde8 c2bd 5120 a3bd
00000090: 8c8e edbd 80b0 88bc 6538 38bd ad44 bbbd
000000a0: 0de3 cabd da93 a0bd 0ed5 93bc 8266 6bbd
000000b0: a442 54bd 0ad4 99bd 449e d93c 4a63 3ebd
000000c0: ce8d 32be 659b dfbd ac51 7dbe f66d c9bd
000000d0: ed3f 42be ccd4 b7bd 4068 1cbe e1c4 e63c
000000e0: 3963 91bd 9cf6 98bd feed 73be 07f0 a4bd
000000f0: 7a87 f9bd 444c 20be a431 23be 9b49 77be
00000100: 21e0 8dbd 82b2 17be 5c82 5cbe 33b0 1c3d
00000110: d4e1 ecbd 706e 40be a0f2 e8bd 4a50 f9bc
00000120: 7b18 0fbe a00e 15be aa0a 25be ee00 f7bd
00000130: 4d89 92bd 808e 01bd 211d d7bd 2342 e9bc
00000140: 8319 5bbe 4024 5fbd 2d74 cdbd 6a16 2fbe
00000150: 190f 16be 8df1 df3d 0c01 21bd 99a2 1cbe
00000160: d5ed 6fbe 8b7a cdbd 5d89 43be 3517 16be
00000170: 56e6 28be 001e ecbd f564 9cbd 9831 ffbc
00000180: 3026 4dbe 6718 35be 78a5 13be 597f 6dbd
-0.07787156 -0.094846934 -0.13015771 -0.024004238 -0.15573898 -0.17253397 -0.17332256 -0.0060714413
-0.14340732 -0.023576938 -0.057808597 -0.080937944 -0.09484915 -0.13088207 -0.15128183 -0.036266435
-0.09528556 -0.04149105 -0.13901909 0.043862134 -0.07561531 -0.18132788 -0.14344491 -0.08895078
-0.04456408 -0.08818805 -0.009585455 -0.14516383 0.0260504 -0.18126658 0.009166698 -0.07348257
-0.03697337 -0.15983023 -0.09517095 -0.07965148 -0.11599454 -0.016685724 -0.044975657 -0.09143958
-0.09906588 -0.078407004 -0.018045928 -0.057470806 -0.051821366 -0.07511146 0.026564725 -0.04648141
-0.17436907 -0.10918311 -0.24738187 -0.098354265 -0.18969698 -0.08976135 -0.15274143 0.028170051
-0.07099003 -0.07468912 -0.23821256 -0.08053594 -0.12184043 -0.15654093 -0.15936905 -0.24149172
-0.06927515 -0.14814189 -0.21534103 0.038253974 -0.11566511 -0.18792129 -0.11374402 -0.030433793
-0.13974182 -0.1455636 -0.1611735 -0.12060724 -0.07155094 -0.03163004 -0.10503603 -0.02847392
-0.2139645 -0.05447793 -0.100319244 -0.17098394 -0.14654197 0.10934744 -0.03930764 -0.15296401
-0.2343057 -0.10033139 -0.19095369 -0.1465729 -0.16494116 -0.115291595 -0.076364435 -0.031151578
-0.20034099 -0.1768509 -0.1441859 -0.057982776

seq.7.weight f4 [10, 100]
00000000: 2fa4 acbd 3b50 00be 89c7 2abd 1b53 97be
00000010: 12ac a3bd 106b 04bd 278b 033e 9b2b 90bd
00000020: d227 4dba ab77 34be b24c 2b3e cb01 cebd
00000030: 9509 3b3d e08f 193b 2c50 103e c710 233e
00000040: 253c 63be c17f 8b3d c566 1cbe b112 7cbe
00000050: 201e a2bb d4a8 abbc 3e94 53be ae96 b2be
00000060: 009c 2fbe 5a3f f4bd 095d 303d 87c0 b6bd
00000070: 646b fabd d9e3 ebbc 4149 f5bd 3ecc 9abd
00000080: 8895 74be 9384 743e 657e 073e 5f1f b5bd
00000090: 9b13 af3d 4449 283e 36f3 b8bd fdf2 96be
000000a0: bd03 22be eedf 36be 8c10 4a3e 1f1e 66be
000000b0: c650 a2be 087a 86be 6530 30be cc61 45be
000000c0: 199c c3bd dd23 edbd ba26 823c bb48 3ebd
000000d0: 1dc1 4d3e 4027 97be 63c9 3a3d 9d8a 3abe
000000e0: 9f52 a5be fc43 90be 7e1e 5fbd 98e6 26be
000000f0: 842b 01be 83f4 693d 5933 ccbe 477a 073e
00000100: ef6b bcbc 4e61 553d 0b7f 14be a7b8 8ebd
00000110: 963b d43d 77ee 65be 49d0 0b3e 760c 00be
00000120: 5224 51be 2b1b 8fbe e2b6 083d ffe1 efbc
00000130: aa6f 8bbe 3102 a2be ffe1 c9bd c70b 2d3e
00000140: eaf1 70bd d9a4 67bb 5a41 1dbd 2725 c9bd
00000150: 68b3 ebbd 7cd4 92be ea95 39be a933 2dbe
00000160: 0157 b2bc 2341 82bd 11d5 81bb d103 303d
00000170: f395 cd3b 26b9 3b3d a9f8 dd3b 13d1 ee3d
00000180: abda 303e c1ae 30be 55a9 8abd c817 21be
00000190: b320 33be 50d7 1dbe f4ef 31be 8558 513e
000001a0: 239b ebbd 48e5 60be e8da 683d 9523 013e
000001b0: cc21 89bd 99ed c93b 72d0 c33d 2cae a33d
000001c0: c6f4 043d eac3 c1bc 5d18 c2bd d89e 80bd
000001d0: b8ba 173d 7053 94bc 5dfa 0abe 74f9 b83d
000001e0: 4907 a3bd be15 e2bd 1373 72be 7302 6bbd
000001f0: c1af 20bd e855 7abb cca2 103e aa69 c7bd
00000200: 2a7a b33d e43e c9bd c971 013e c878 a5bd
00000210: fa22 e2bd 9d57 72bc f976 233d ca57 203e
00000220: 585d c2bd a774 383e 8251 6a3d e9a6 babc
00000230: f39e 89bc b8dd 373e b0ce 703d 61dc 083e
00000240: a3c0 4e3d 0c95 963d 8f31 5b3e 1dda 193e
00000250: d5b4 52be 2dfa d43b 7644 d6bc 2caa a9be
00000260: 96fd d1bd 72d5 71be 3b60 a4bd 3392 5dbc
00000270: bd6e babc a449 e23d bba2 efbd 98a4 8e3d
00000280: ccba e13d 986d 9fbe 6fc6 31be 6dda 65bd
00000290: 218c febd 1c39 6abe e534 81be 5f2a db3d
000002a0: fc89 6dbe 7ce7 1dbe 7343 9ebd 8c6f 0b3e
000002b0: 54b4 12bc a268 d5be 4c1d dcbd fc11 cebd
000002c0: baa1 2dbe 3811 35be 8758 e9bd 99b3 57bd
000002d0: 7a12 f7bd 18ca 0ebe e103 1b3e 8034 95be
000002e0: 6415 29be eca6 443e 6401 013d 1291 ad3d
000002f0: a0eb b2be a53e cebd 26b8 13be 717d b1bd
00000300: 1058 01be 1af2 9f3a 216e 8bbe 29e7 8fbe
00000310: ce83 ccbe 348c 51be 81d8 9ebe 3b03 103e
00000320: a517 713c 699e b0bd 89b2 1ebe 33e4 b7be
00000330: 0742 833d a525 1a3e b10e 40be 8c83 0d3c
00000340: 443b 693c 4d74 4bbe 30a1 adbe 2258 27bd
00000350: 5699 3ebd 41dd 53be aca2 873d f78b b53d
00000360: 2e18 41be 6cef 473e 4bf7 6abd 04b7 3e3d
00000370: 14bb 15be af5e c63c bab0 f23d f039 a23d
00000380: d61a 213d 2c59 d43d a7af fe39 959c 0f3d
00000390: 8836 df3d 856f 18be c0e6 95be 9fde 1fbe
000003a0: 6927 2abd 96d4 6a3d f0f2 a3bd 715e 09be
000003b0: 5000 7e3d 90e2 583c bb27 8b3d 326f 44be
000003c0: 0a69 9ab9 5b29 973d 9d57 9f3d cad1 07bd
000003d0: f0a0 72be 84dc eb3d 218b 48bd a759 94bc
000003e0: c8eb 413d 4344 353e 8107 73bd 7b3c bb3b
000003f0: 8362 bd3d 721a 82bd 5713 393e 8657 353e
-0.08429753 -0.12530605 -0.041694198 -0.29555592 -0.07991804 -0.032328665 0.12846051 -0.07039567
-0.0007826063 -0.17623775 0.16728476 -0.10058936 0.045663435 0.0023431703 0.14093083 0.15924369
-0.22190912 0.068114765 -0.15273578 -0.24616505 -0.004947439 -0.020954527 -0.20662019 -0.34880584
-0.17149353 -0.11926146 0.043057475 -0.089234404 -0.122275144 -0.02879517 -0.11976863 -0.07558487
-0.23885167 0.23878698 0.1323181 -0.08843874 0.08548661 0.16434199 -0.09030764 -0.2948226
-0.15821739 -0.1785886 0.19732875 -0.22472428 -0.3170225 -0.26264977 -0.17205961 -0.19275588
-0.09551258 -0.11579106 0.015887607 -0.04645608 0.20093198 -0.29522133 0.045602214 -0.1821694
-0.32289597 -0.28176868 -0.05447244 -0.16298902 -0.12614256 0.05711795 -0.39882925 0.13230239
-0.023000685 0.05209475 -0.14501588 -0.069688134 0.103629276 -0.22454248 0.13653673 -0.12504753
-0.20424011 -0.27950415 0.033377536 -0.029282568 -0.2723363 -0.31642297 -0.098575585 0.16899024
-0.058824457 -0.003534606 -0.038392402 -0.09821539 -0.115088284 -0.28677738 -0.18123594 -0.16914238
-0.021770002 -0.0636008 -0.003962167 0.04297239 0.006273979 0.04583087 0.0067740274 0.116609715
0.17270915 -0.17254163 -0.06770579 -0.15731728 -0.17492943 -0.15414166 -0.17376691 0.20443924
-0.11504199 -0.21962464 0.05684939 0.1261123 -0.06695899 0.006162357 0.09561242 0.07992205
0.032459997 -0.02365299 -0.09477303 -0.06280297 0.037043303 -0.018106192 -0.13572069 0.090319544
-0.07960374 -0.11039303 -0.2367671 -0.057375383 -0.039230112 -0.0038198177 0.14124602 -0.09736951
0.08763535 -0.098264486 0.12641062 -0.08079678 -0.110418275 -0.014791396 0.039908383 0.15658489
-0.0949046 0.1801325 0.05720664 -0.022784667 -0.016799426 0.17955673 0.058790863 0.13365318
0.05047668 0.07352647 0.21405624 0.1502461 -0.20576794 0.00649955 -0.026155692 -0.33137643
-0.10253446 -0.23616579 -0.08026167 -0.013523626 -0.022757882 0.11049202 -0.1170096 0.069649875
0.11021957 -0.311383 -0.17360853 -0.05611651 -0.12429071 -0.22873348 -0.25235668 0.10701441
-0.23197168 -0.15420336 -0.07727709 0.1361677 -0.008954126 -0.4168139 -0.107477754 -0.10062024
-0.16956225 -0.1768235 -0.113938384 -0.052661512 -0.12064071 -0.1394428 0.15138198 -0.29141617
-0.16512066 0.192043 0.031495467 0.084749356 -0.34945393 -0.10070542 -0.14425716 -0.08666504
-0.1263125 0.0012202889 -0.2723246 -0.2810605 -0.3994431 -0.2046364 -0.31024554 0.14063732
0.01471511 -0.08623964 -0.15497793 -0.3591629 0.06409078 0.15053423 -0.18755604 0.00863732
0.014235321 -0.19868584 -0.3391204 -0.040855534 -0.04653295 -0.2068987 0.06622824 0.08864587
-0.1885688 0.19524926 -0.057364743 0.046561256 -0.14622146 0.02421507 0.11850114 0.07921207
0.039332233 0.10368571 0.00048577526 0.035061438 0.10899073 -0.14886291 -0.2927761 -0.15612267
-0.04154149 0.057331644 -0.08005321 -0.13414933 0.062012017 0.01323761 0.06794687 -0.19183043
-0.0002945143 0.07380935 0.07780383 -0.033159055 -0.23694205 0.115166694 -0.04896081 -0.018109156
0.047344 0.17701821 -0.05933333 0.005713997 0.09247305 -0.063527 0.18073784 0.17709169

seq.7.bias f4 [10]
00000000: 16fa 013e 89c4 023d 016f 63bc c036 7e3d
00000010: bd47 6c3c 4cb9 d6bd 8bfa 18be 063a 733d
00000020: f5fe e23d 2747 4b3a
0.12693056 0.03192571 -0.013881446 0.062063932 0.014421401 -0.10484561 -0.14939325 0.059381507
0.110837854 0.0007754438
