MNIST手写数字识别/MNIST手写数字识别/FNN_MODEL_PARARM.pt (torch, 320280 bytes, 4 tensors)

sequential.1.weight f4 [100, 784]
00000000: aa3b 41bc 8097 9d3c 0052 6cba e061 7ebc
00000010: 0c3b b1bc 7c0e ca3c 108d bc3c b861 c0bb
00000020: 60e0 32bc e379 09bd 6048 d03c 5af1 a13c
00000030: 401f 7cbc ca1a 91bc 44b6 383c 483e a33c
00000040: da01 873c 1549 073d ead8 91bc b876 343c
00000050: 2f2c 083d 0ed1 e3bc 2315 b9bc 4a2c f23c
00000060: 9053 763c d066 a73b e128 fcbc 8815 d3bb
00000070: abdb 0dbd e012 e4bc 0853 d1bb 3c38 4dbc
00000080: 3120 f1bc 885d d33b 3838 903b 7004 453c
00000090: 64a5 333c 00c7 41b9 c2da ea3c 788a 273c
000000a0: 58ef 5b3c e816 cfbc 682f 063c 5015 583b
000000b0: 769e a83c f7a2 90bc 2e2b 8dbc 789f c0bb
000000c0: 70a6 90bb 3008 aa3b f286 34bc 38b0 a7bc
000000d0: 1cd7 763c 9c5a 5d3c fcfc 2cbc 6597 8bbc
000000e0: d843 24bc 10c9 06bd b8aa 8f3c 781a a63c
000000f0: 64d7 05bd 401d ceba 48b3 fa3b 00bf 8c3a
00000100: 3eb2 d33c 1388 0d3e 5402 253e 7ba4 093e
00000110: 189f 173e 05e6 fbbc d067 3c3e b2f2 393e
00000120: 5b9d 483e 4f48 0b3d a411 693c 80b3 bd3b
00000130: fc08 093c f381 f2bc 6090 6cbb f6a3 00bd
00000140: 202c d13c 3a80 9b3c 30a9 803b 6067 f5ba
00000150: a6e0 3cbc ae12 75bc c6a4 dc3c 3faa 083d
00000160: 9d64 0c3d 58d0 abbc 9cd3 febc 57eb 053d
00000170: e175 3b3e 1ff9 083e ccd5 1e3e f773 3b3e
00000180: 9acb 243e 1174 8a3e 8c37 873e 356a 8b3e
00000190: a693 833e 32c0 9d3c 0a53 c3bc 4023 74bc
000001a0: 13e4 85bc ccad eebc c07a bc3b 7c0f 10bd
000001b0: 806c 1b3c acbe c03c aa55 2ebc f055 dcbb
000001c0: d14a 043d 58ed e3bc a83b c83b de23 8d3c
000001d0: 8021 9439 f861 a4bb cef0 fabc 9778 103d
000001e0: dedd 183e 2b1a 72bd b1c5 29bd c37d d7bd
000001f0: a7f7 50be 8edf 993d 3bea 893d ffd8 623d
00000200: 12e5 153d 1c9f 44be 0c3e 94be 15f7 3cbe
00000210: 1112 59be f611 9d3c cf76 003d 2845 fe3b
00000220: e89b 9a3b 309b ca3c 20b3 9e3a a8a0 b23b
00000230: ff6e 08bd 5c08 c8bc 6e24 9fbc 0007 93bc
00000240: 6898 cc3b d006 863c 1077 083b 6c3c 27be
00000250: b1a5 36be db5d 33be aa5c 17be 864d 48be
00000260: 77e8 04be 59cf d4bd 41cc 28be 42c7 cfbd
00000270: e828 25be d30d 54be e8e9 8cbe 3e59 7ebe
00000280: cd25 65be 9b36 52be 4598 2fbe 384d 4bbe
00000290: 09bb 37be fe45 f8bc 6315 0b3d 73e6 a7bc
000002a0: 8e29 f1bc cebb aabc 9673 a63c b6d5 ed3c
000002b0: 6020 803c 7f92 093d 58e5 31be f2b0 6fbe
000002c0: 2e92 efbd 147a f2bd dc26 18be 879c ddbd
000002d0: fc91 1dbe 4165 1cbe 9f46 30be 4b70 4dbe
000002e0: 5cff 34be 9e45 60be 071f 85be ce75 86be
000002f0: 7315 82be 71b7 27be 4503 30be 4255 25be
00000300: 437f 35be 107e 01bd 2206 f93c 8022 1fba
00000310: 7088 9d3c 18f6 22bc 0bd4 0fbd 3091 3b3b
00000320: 9410 0b3c dd6e 03bd 2494 77be 2088 68be
00000330: ee1b 1cbe cb88 10be 03b6 c0bd 4954 b4bd
00000340: 3e37 eabd 15db 51be 93f1 2cbe 03a0 35be
00000350: af64 44be ec82 68be 6672 8ebe 604b 88be
00000360: 3f92 8cbe 00e5 37be e7a0 60be 3fc8 12be
00000370: ea27 1fbe 154d b1bc e41d 503c dac1 c3bc
00000380: aa11 03bd 5083 083b 6099 d2ba a0ce 563c
00000390: f7bd 0fbd cd48 08be f90c 60be 2ea9 44be
000003a0: afb1 dabd a89c f6bc 4174 ecbd 54b1 ddbd
000003b0: 1de9 02be 11e6 3fbe 9599 60be ba07 24be
000003c0: ff11 53be 73a5 7ebe 3979 90be 5d06 6bbe
000003d0: 5847 5cbe aa76 55be fdf6 78be ab61 59be
000003e0: 52f3 813c 7343 dfbc e592 0e3d 0e9e a0bc
000003f0: f993 103d 4e6a a23c 80e6 693c 3284 943c
-0.01179401 0.01923728 -0.00090149045 -0.015526265 -0.021634601 0.02466511 0.023016483 -0.005871024
-0.010917753 -0.033563506 0.025425136 0.019768406 -0.01538831 -0.01771297 0.011273924 0.019927159
0.016480375 0.03302868 -0.017803628 0.011014633 0.03324526 -0.027809646 -0.022593087 0.029562134
0.015034571 0.0051086918 -0.030781211 -0.0064417757 -0.03463332 -0.027841032 -0.006388072 -0.012525614
-0.029434295 0.006450359 0.004401233 0.012024984 0.010964725 -0.00018480048 0.028668765 0.010225885
0.013423763 -0.025279477 0.0081900135 0.0032971688 0.020583373 -0.017655833 -0.017232504 -0.005878385
-0.004414372 0.0051889643 -0.011018502 -0.02046977 0.0150659345 0.0135103725 -0.010558363 -0.017039964
-0.010025941 -0.032906592 0.01753746 0.020276293 -0.032676116 -0.001572527 0.0076507665 0.0010738075
0.025841828 0.1382144 0.1611417 0.1344165 0.14806783 -0.03074933 0.18398976 0.18158987
0.19591276 0.034004506 0.014225397 0.0057892203 0.008363958 -0.02960298 -0.0036096796 -0.031406365
0.025533736 0.018982042 0.0039264187 -0.0018722825 -0.01152817 -0.014958067 0.026934039 0.033365484
0.03427564 -0.02097337 -0.031106763 0.03269514 0.18306686 0.13376282 0.15511245 0.18305956
0.16093293 0.27041677 0.26409566 0.27229467 0.25698584 0.019256685 -0.023843307 -0.014900982
-0.016344106 -0.029135607 0.0057519376 -0.035171017 0.009486318 0.02352842 -0.010640541 -0.0067241117
0.032297913 -0.027823135 0.006110627 0.017229017 0.0002825372 -0.0050165616 -0.030632403 0.035271253
0.14928386 -0.059106987 -0.0414483 -0.10522034 -0.20406972 0.07513343 0.06734129 0.055382725
0.03659541 -0.1920132 -0.28953588 -0.1845363 -0.21198298 0.019173604 0.031363305 0.007759709
0.0047182925 0.024732202 0.0012107827 0.0054512806 -0.03330898 -0.024418049 -0.01942655 -0.017947674
0.006243754 0.01636067 0.002082292 -0.16331643 -0.17836644 -0.17516272 -0.14781442 -0.19560823
-0.12979303 -0.10391111 -0.16484167 -0.10145427 -0.16128886 -0.20708399 -0.27522206 -0.2483873
-0.22377701 -0.20528643 -0.1714793 -0.19853675 -0.17942442 -0.030306812 0.033955943 -0.020495629
-0.02943876 -0.020841505 0.020318788 0.02903257 0.015640438 0.033586975 -0.17372644 -0.23407343
-0.116978034 -0.11839691 -0.14858574 -0.10820871 -0.1538772 -0.15273 -0.1721444 -0.20062368
-0.17675537 -0.21901557 -0.26000234 -0.26261753 -0.2540699 -0.16378571 -0.17188747 -0.16145805
-0.17724328 -0.031614363 0.030398432 -0.00060705096 0.019230098 -0.009946369 -0.03511433 0.0028620474
0.008487839 -0.03208815 -0.24177605 -0.22708178 -0.1524503 -0.14114682 -0.09409716 -0.088051386
-0.11436318 -0.2049373 -0.16889028 -0.17736821 -0.19179033 -0.22706193 -0.27821654 -0.26620007
-0.27455327 -0.1795845 -0.2193638 -0.143342 -0.1554257 -0.0216432 0.012702439 -0.023896147
-0.031999268 0.0020830221 -0.0016067438 0.013110787 -0.035093274 -0.13309021 -0.21879949 -0.19205162
-0.10678422 -0.030103996 -0.11545611 -0.10824838 -0.12784238 -0.18740107 -0.21933587 -0.16018572
-0.20612334 -0.24867801 -0.28217486 -0.22951646 -0.2151159 -0.20846048 -0.24312969 -0.21228664
0.015863094 -0.027253842 0.03480806 -0.019606616 0.035297368 0.01982608 0.014276147 0.018129442

sequential.1.bias f4 [100]
00000000: 7f13 17be a285 c6bd 487c 3dbf 961d a3bd
00000010: 72ac 30be c94c b5bf a81e 2fbe 1285 35be
00000020: f81d 2dbe d3af 90bd 1ebd 19be 1752 e3bd
00000030: 6819 a2c0 2f06 573f a448 13be 0a23 52be
00000040: 16cb f9bd 0625 29be dd3c 81be 75a3 debd
00000050: 87df 01be bf56 21be 0b08 4dbe e3c5 693f
00000060: 8885 8bbe 405c 1cbf 8e18 22c0 f090 8cbf
00000070: a7a5 2abe 1775 07be d322 dfbd 5c44 6dbe
00000080: 55de 3dc0 1611 acbd 2224 29be caed dcbe
00000090: 6264 1abe fc80 57be 89a5 6cbe 0939 02c1
000000a0: 1490 42be 7cf1 13be 1f8a 18be 81aa 94be
000000b0: 0a32 0fbe cd38 c8be 9975 32c0 fac5 4abf
000000c0: 7d3e 92bf 57f8 cabf a912 60bf 98a4 0fbf
000000d0: cc50 d5c0 e9d4 f8be e459 3dbe e798 23be
000000e0: 3750 3fbe 3e59 01be fa0d fbbd d9da 36be
000000f0: 086f b3c0 796c b2be f333 17be a1b0 fbbd
00000100: beac c2be 8345 babf c179 1fbe 94bb 7ebd
00000110: a776 44bf 73f9 d7bd 9882 3cbe 3ce3 45be
00000120: 8972 bebe 3255 f4bf 6620 53be 468f e1bd
00000130: 2281 11be 9e35 f4bf 0215 16be 9d67 d1bd
00000140: 66f0 3ebe ba11 22be 7dd7 1ebe 9d27 34be
00000150: 2d93 06c0 f265 0dbe 50a3 15be 102c 48be
00000160: dfca 63bf 8490 59be 5d95 69c1 9695 febd
00000170: 255a 47bf 172a 88be d6c0 15be ed4f 6bbf
00000180: 125f e8bd 0ea7 c1bf 5ded 3dbe 3f16 6abf
-0.14753531 -0.09693457 -0.74017763 -0.079646274 -0.17253283 -1.4164058 -0.17101538 -0.17726544
-0.16905963 -0.07064786 -0.15013549 -0.11099642 -5.0656013 0.8399381 -0.14383179 -0.20521179
-0.12196939 -0.1651803 -0.25241747 -0.10871021 -0.12682925 -0.15755747 -0.200226 0.91317576
-0.27250314 -0.6107826 -2.5327487 -1.0981731 -0.16664754 -0.1322826 -0.10895314 -0.23170608
-2.966695 -0.084016964 -0.1651769 -0.4315017 -0.15077356 -0.21045297 -0.23110022 -8.138925
-0.19000274 -0.14447588 -0.14896439 -0.29036334 -0.13983932 -0.39105836 -2.7884276 -0.7920834
-1.142532 -1.5857037 -0.87528473 -0.56110525 -6.666113 -0.48599938 -0.18491322 -0.15976296
-0.18682943 -0.126317 -0.12258525 -0.17856921 -5.6073036 -0.34848383 -0.14765911 -0.12289549
-0.38022417 -1.4552463 -0.15573789 -0.062190607 -0.7674355 -0.105456255 -0.18409193 -0.19324964
-0.37196758 -1.90885 -0.20617828 -0.11013655 -0.14209417 -1.9078863 -0.14656451 -0.10224841
-0.18646392 -0.15827075 -0.1551189 -0.17593236 -2.102733 -0.1380842 -0.1461308 -0.19548059
-0.8898143 -0.21246535 -14.598966 -0.12430875 -0.77871925 -0.26594612 -0.14624342 -0.9191883
-0.11346258 -1.5129106 -0.18547578 -0.91440195

sequential.3.weight f4 [10, 100]
00000000: 09d5 bb3d 038a e73d aa09 7cbf 4aaf 493e
00000010: 80c3 85be 3334 49bd 2bc7 87be 9974 e3bd
00000020: 0f02 273e 931a c43d adaa 033e 467d 3d3e
00000030: 25f8 0c3e 2330 993e f756 223e 56ee fb3c
00000040: cd0d c53d e9bc 9cbc 31d2 3cbe 0eca d93d
00000050: 17f0 3d3e c46c d83d e544 26be 84e4 aabe
00000060: 52c1 91be f7f9 083f 794d 63c0 10b5 4bbf
00000070: 6942 5bbe 7ac0 b43d bcc6 f13d e365 63be
00000080: dc8b afbe 1519 633d 1554 8a3e fe87 62bf
00000090: 61c9 b6bd a2ee 0f3d 2e3b 4b3e 5211 923f
000000a0: 0344 e0bd 9ae9 27be 0682 31be ceab e6be
000000b0: 5787 043d def0 dcbe 75e2 90be 50fc 843d
000000c0: 6d04 0bbd efcb 8ebf 09fe 8ebd 897c 6abe
000000d0: 9792 4ebf ded3 41bf 65d5 a6bd fb23 d1bd
000000e0: 471d 9c3d 2898 30be 362d 183d f191 c13d
000000f0: 9009 13c1 56de b8bd f8b2 3a3e fbfd ed3d
00000100: e46a 04c0 3865 dbbf 410e 7dbe f05a 0b3e
00000110: dbd0 143f 1183 c73d b6f9 4abe b99f b93c
00000120: 56c3 babe b6fd 6fbf 8b92 ba3c ce9f f53d
00000130: 0141 2e3e 1103 cdbe 4975 9a3d b28c 753d
00000140: 1a2d 503e 16ed 933d 360b 89be 0df6 883c
00000150: 0617 3abe be2f 513d 3061 e23d 077e 06be
00000160: 846f d7be da3f d2bd 501e debe 9b24 a73d
00000170: 1f4b 04bf a86f d5be 282d f23d 4d45 56bd
00000180: 7185 7d3d 2b20 8bbf a699 c83d 7e51 073c
00000190: 6846 823d 81eb a23c 62e5 f53d 89e8 543e
000001a0: 0e0b 0bbe 66ec 48be 6057 6dbe 872d 22be
000001b0: 5f11 61be ede6 163e 7673 bb3c 4f30 a73d
000001c0: 396b 95be 9666 f1bd 1a5f 14be 591a 133e
000001d0: bec3 65be be47 13bc eb84 32bd 320d d23d
000001e0: abe4 64be 60b6 203e a94f 88be c9b6 c03e
000001f0: 2847 98be 8882 60be ccfd 783f ddb0 c63e
00000200: d3d8 43be 506d 843c 2fc7 063e e6e5 65be
00000210: 1b4b b6be d26c 563d 3a27 88bd b6e9 20bd
00000220: 25b3 ecbd 250d 463d 80a2 cbbd ab50 37bf
00000230: 6223 53be 89ad 83be 5baa 1ebe 1fef 493e
00000240: cce1 143e 1cff 3b3c 97be 88be ea84 fcbe
00000250: c4af 1fbf 984f 4fbf 5bf1 62bf 11d4 57bd
00000260: 024a 5ebe 71f7 80bf 1199 0abe d382 5cbe
00000270: 37a7 f03d 32da 853e 9ae2 ee3d 6cc0 733e
00000280: 0609 1f3f 088c 0b3f 3d28 d93d 636a 463d
00000290: efad 0fc0 c753 d6be c9ce 4ebe 8336 c9bb
000002a0: 968c cd3d 95de a8bd fa29 67be 45c1 11be
000002b0: 8881 81be 176b b5be f178 00be 85b9 343e
000002c0: 2525 4d3c 50a2 8bbf fcbf e93c 05a1 58be
000002d0: 62a9 8d3b 2fb6 4ebe e488 3e3e 9659 153e
000002e0: 4c47 f3be 30a6 14be 2aa9 5f3d 5dff 48be
000002f0: e195 393f 7573 283e c134 d63e 2946 623d
00000300: b1db 873e be8c 5dbd 1dcd 313e 8758 3abe
00000310: 0552 303d c938 c5bf b15e 1a3e a856 96be
00000320: e82f 5b3b 8379 f7bd 81b1 d43e ae61 f9bd
00000330: ac6e d13d aef0 a23d 9018 e6bd 6f4c f73d
00000340: 2095 863d c5d7 2fbe c4bb abbd fea2 a1bd
00000350: 962d 1abd d936 fb3e b728 ebbd c2b6 1abe
00000360: 23c1 a8be b096 4f3e 56a2 b53d 5c8c 0bbe
00000370: 67bb 5ebd 7735 4dbe e5da b33d b381 3ac0
00000380: bce2 c23d 3fcf 03bf 4fe1 a8bf 0cdd a5bf
00000390: d9bb ba3d 0d27 4ebe 142c c23c 92f8 70be
000003a0: 23c1 833f 5ce1 41bc 60eb a43d a9ff 09be
000003b0: c4aa cd3d 596f 1c3e a066 dcbd 59b5 063f
000003c0: e486 8abe df97 203e 6b30 093e e943 84be
000003d0: 7dcf 2fbe 53a9 f53c c140 423e 32b3 06bf
000003e0: 704c 5cbe 4795 62bf 2c99 213e c418 0abe
000003f0: 5cd2 d8be 4f50 7cbf 7d8b 40be 6f97 083e
0.091714926 0.113056205 -0.98452246 0.19695774 -0.26125717 -0.049122047 -0.2651914 -0.111062236
0.16309379 0.09575381 0.12858076 0.1850482 0.13766535 0.29919538 0.15853487 0.030753296
0.09621773 -0.019133048 -0.18439557 0.10634242 0.18548618 0.105676204 -0.16237219 -0.3337747
-0.28467804 0.53506416 -3.5516036 -0.79573154 -0.21412052 0.088257745 0.11805484 -0.22206835
-0.34286392 0.055443842 0.27017274 -0.8848876 -0.08925129 0.035139687 0.19846794 1.1411536
-0.10950472 -0.16397706 -0.17334756 -0.45052952 0.032355633 -0.43152517 -0.28297773 0.06493437
-0.033939768 -1.1155986 -0.06982047 -0.22899069 -0.8069243 -0.7571391 -0.081461705 -0.10211941
0.07622772 -0.17245543 0.03715249 0.09451664 -9.189835 -0.09026782 0.18232334 0.116207086
-2.069024 -1.7140265 -0.24712469 0.13608909 0.5813119 0.09741796 -0.1982182 0.02265917
-0.36477154 -0.9374651 0.022774955 0.11993371 0.17016985 -0.40041402 0.075419016 0.05994863
0.20329705 0.07222955 -0.26766366 0.016718889 -0.18172845 0.05107092 0.11053693 -0.13134013
-0.42077267 -0.10266085 -0.43382502 0.08161279 -0.51677126 -0.4168675 0.11825019 -0.052312184
0.061894838 -1.0869192 0.09794931 0.008259175 0.06361085 0.019887688 0.12006642 0.2079183
-0.13578436 -0.19621429 -0.23177862 -0.1583768 -0.21979283 0.14736529 0.022882205 0.08163511
-0.29183367 -0.11787145 -0.14489403 0.1436552 -0.22437951 -0.008989273 -0.04358379 0.10256423
-0.22352855 0.1569457 -0.26623276 0.37639454 -0.29741788 -0.21924794 0.97262263 0.3880681
-0.1912568 0.016165406 0.1316192 -0.2245098 -0.35604176 0.052349873 -0.06648107 -0.039285384
-0.115576066 0.04835238 -0.09943104 -0.71607465 -0.20618966 -0.25718334 -0.15494673 0.19720124
0.1453926 0.011474397 -0.2670791 -0.49320155 -0.6237757 -0.80980825 -0.8864953 -0.052692477
-0.21707919 -1.0075513 -0.13534953 -0.2153428 0.11750644 0.26143032 0.116643146 0.23803872
0.62123144 0.54510546 0.10603378 0.048441302 -2.244991 -0.41860792 -0.2019607 -0.0061405315
0.1003658 -0.08245579 -0.22574607 -0.14233883 -0.25294137 -0.35433266 -0.12546135 0.17648895
0.012521063 -1.0908909 0.028533928 -0.21155174 0.0043231705 -0.20186685 0.18606907 0.14584956
-0.47515333 -0.1451652 0.054604687 -0.19628663 0.7249432 0.16450293 0.41837123 0.05524269
0.265348 -0.0540893 0.17363401 -0.18197833 0.04304697 -1.5407954 0.15075184 -0.29362988
0.0033445302 -0.120837234 0.41541675 -0.12176834 0.10226187 0.07956062 -0.11235154 0.120751254
0.06571412 -0.17172153 -0.08385423 -0.078924164 -0.03764113 0.49065283 -0.11482375 -0.15108779
-0.32959852 0.20272326 0.08868854 -0.13627762 -0.05437794 -0.20039926 0.08781985 -2.9141662
0.095159024 -0.5148811 -1.3193759 -1.2958083 0.0911786 -0.20132084 0.023702659 -0.23532322
1.0293316 -0.011833515 0.08052707 -0.13476433 0.100423366 0.15276851 -0.10761762 0.52620465
-0.27056038 0.15682934 0.13397376 -0.2583306 -0.17168994 0.029987967 0.18970014 -0.5261718
-0.21513534 -0.8850903 0.15781087 -0.1348601 -0.4234799 -0.9856004 -0.1880321 0.13339017

sequential.3.bias f4 [10]
00000000: 0099 00be 4f6b 94bf 27c1 923e fe5a 4a3f
00000010: dede 0abe 60f4 3f3e f1b0 bbbe dc21 09bf
00000020: 59c7 833f 009d edbe
-0.12558365 -1.1595248 0.2866299 0.79045093 -0.1356158 0.18745565 -0.36658433 -0.5356729
1.0295211 -0.46408844
